gnn_model/gnn.tflite (tflite, 55124 bytes, 12 tensors)

graph_convolution_2/bias f4 [64]
-0.041119102 0.13302384 0.14395994 -0.106864594 0.012874496 0.10666535 -0.15678069 -0.053473767
-0.1647632 0.15447243 0.2191138 0.1609126 0.0423189 0.16656552 -0.05209397 -0.019699456
0.10955687 -0.075402796 0.1528048 0.18443976 0.24588044 -0.10198103 0.028196573 -0.15475614
-0.110921964 -0.13407873 -0.03563564 0.14813109 0.18948524 0.16757755 0.10931573 -0.1670181
-0.041563462 0.19261378 -0.18892942 0.13658907 -0.14355819 0.11722379 -0.20939466 0.13560227
-0.011626177 -0.087801196 0.118783034 0.15814534 0.029034844 0.18265188 0.19594082 0.16644135
-0.023313673 0.036759242 0.076707184 -0.13954711 0.10111619 0.022567086 0.17620468 0.04880096
0.055079956 -0.0146343 -0.14704901 0.0023500407 -0.027829032 0.11257138 -0.042925444 0.18273717
00000000: 816c 28bd 6737 083e 3c6a 133e d3db dabd
00000010: 8def 523c 5d73 da3d 1e8b 20be 4f07 5bbd
00000020: afb7 28be 052e 1e3e 5e5f 603e 46c6 243e
00000030: 9556 2d3d 2790 2a3e 7d60 55bd c160 a1bc
00000040: 5a5f e03d c86c 9abd dd78 1c3e c7dd 3c3e
00000050: 15c8 7b3e 6edb d0bd 80fc e63c 6578 1ebe
00000060: 0e2b e3bd ef4b 09be adf6 11bd adaf 173e
00000070: 6b08 423e 7399 2b3e ede0 df3d cb06 2bbe
00000080: 733e 2abd 8c3c 453e b776 41be 01de 0b3e
00000090: eb00 13be 0713 f03d 8e6b 56be 52db 0a3e
000000a0: b87b 3ebc 1dd1 b3bd 8544 f33d daf0 213e
000000b0: 7bda ed3c 1809 3b3e b6a4 483e 9a6f 2a3e
000000c0: 51fc bebc dc90 163d a818 9d3d 70e5 0ebe
000000d0: 0116 cf3d 9cde b83c 006f 343e 84e3 473d
000000e0: 859b 613d b4c4 6fbc 0494 16be 2403 1a3b
000000f0: b6f9 e3bc d38b e63d 97d2 2fbd 741f 3b3e

graph_convolution_1/bias f4 [64]
-0.09999097 -0.08227189 0.030116929 0.14526272 0.032903302 0.19351973 -0.0761014 0.092379645
-0.124517426 0.19606948 0.01637885 -0.018895207 -0.17060794 0.13252422 0.08821385 -0.1075164
-0.021882819 -0.088771224 0.1588171 -0.017853178 -0.101305366 -0.016806986 0.1740375 -0.040263277
-0.07448983 -0.009276064 0.052498903 0.04945748 0.006721406 -0.0014330291 -0.05882352 -0.13259047
0.017602485 0.17899576 0.12211506 -0.08049514 -0.22997591 -0.119331256 -0.22645167 0.020272002
0.043797653 -0.21837583 0.220184 -0.11039564 -0.04814795 0.24029472 -0.027228273 -0.1581694
-0.17220058 0.16400181 -0.19230703 -0.020237137 -0.18558195 0.10957307 0.19581014 -0.16306993
-0.08343832 0.04652854 0.020817151 -0.033202067 -0.06696055 0.018346338 0.21500808 0.12559311
00000000: 11c8 ccbd 2a7e a8bd c7b7 f63c c0bf 143e
00000010: 9dc5 063d 092a 463e 0ddb 9bbd 8a31 bd3d
00000020: fe02 ffbd 70c6 483e f02c 863c 1fca 9abc
00000030: d9b3 2ebe 6eb4 073e 77a9 b43d 8f31 dcbd
00000040: 9943 b3bc b0cd b5bd f3a0 223e d440 92bc
00000050: 3079 cfbd ceae 89bc e336 323e 1beb 24bd
00000060: 208e 98bd a2fa 17bc 1709 573d ed93 4a3d
00000070: 3d3f dc3b 7ad4 bbba eef0 70bd ccc5 07be
00000080: 1633 903c aa4a 373e 7617 fa3d a3da a4bd
00000090: ce7e 6bbe f263 f4bd f2e2 67be 7811 a63c
000000a0: 2b65 333d ea9d 5fbe ea77 613e 1c17 e2bd
000000b0: c936 45bd d20f 763e d40d dfbc 29f7 21be
000000c0: 5955 30be 17f0 273e 22ec 44be 5ac8 a5bc
000000d0: 3209 3ebe d967 e03d 7482 483e cefb 26be
000000e0: b6e1 aabd b694 3e3d bb88 aa3c e4fe 07bd
000000f0: 9d22 89bd 0f4b 963c 142b 5c3e 7b9b 003e

graph_convolution/bias f4 [64]
0.07773503 0.057703998 0.054314725 0.21599998 0.095243625 -0.008342075 0.030260576 0.08098808
0.0068407417 0.18046008 -0.09598196 0.025824344 0.048838932 0.07752624 -0.023595266 -0.16029237
0.16752146 0.15069713 0.076591946 -0.026122756 -0.05685159 0.14908676 -0.13947833 0.20032021
0.073049225 -0.08914308 0.12988341 -0.10553103 0.23870628 0.17182519 0.14434324 0.10400779
-0.03561443 0.22524598 0.20103797 0.20122035 0.26116064 -0.11098512 -0.0126486495 -0.023027875
-0.02223133 -0.12674865 -4.5337016e-05 -0.08565681 -0.06651621 0.049029164 -0.07677727 0.21393636
-0.18108061 -0.0024925016 0.11163096 0.1596605 0.12499192 0.0041251313 -0.13624692 0.11182169
-0.12504579 -0.19097218 0.18043096 -0.13686371 0.115210496 0.0904149 -0.083726324 0.045402054
00000000: 8b33 9f3d 075b 6c3d 1e79 5e3d 192f 5d3e
00000010: 170f c33d 33ad 08bc 07e5 f73c 14dd a53d
00000020: 4d28 e03b 87ca 383e 3192 c4bd 938d d33c
00000030: 550b 483d 14c6 9e3d dc4a c1bc af23 24be
00000040: bf8a 2b3e 5950 1a3e 3ddc 9c3d 64ff d5bc
00000050: 36dd 68bd 33aa 183e 68d3 0ebe be20 4d3e
00000060: d59a 953d a690 b6bd 2800 053e a720 d8bd
00000070: 6b6f 743e f1f2 2f3e b7ce 133e 0902 d53d
00000080: 70e0 11bd e2a6 663e e6dc 4d3e b50c 4e3e
00000090: d9b6 853e 2b4c e3bd 483c 4fbc f4a4 bcbc
000000a0: 7a1e b6bc 66ca 01be 4028 3eb8 d66c afbd
000000b0: a739 88bd ced2 483d 673d 9dbd 2212 5b3e
000000c0: 326d 39be 3d59 23bb c69e e43d 0b7e 233e
000000d0: c4fb ff3d 1c2c 873b 5084 0bbe c502 e53d
000000e0: 010c 00be 368e 43be e5c2 383e 0026 0cbe
000000f0: 7bf3 eb3d 722b b93d b578 abbd 81f7 393d

dense_2/bias f4 [6]
0.0069863424 -0.02857387 -0.05788956 0.031535298 0.05254487 -0.032852374
00000000: b0ed e43b c013 eabc 9a1d 6dbd 282b 013d
00000010: 4a39 573d 3690 06bd

dense_1/bias f4 [16]
-0.026874345 0.0843616 0.0 0.03322097 0.0 0.007970699 -0.04965813 -0.029833578
-0.0081158485 0.012792035 -0.042969856 0.04798643 0.002039014 -0.011292942 0.08622221 0.012871547
00000000: 9627 dcbc c6c5 ac3d 0000 0000 b612 083d
00000010: 0000 0000 8997 023c 5366 4bbd 8c65 f4bc
00000020: 56f8 04bc af95 513c 2901 30bd 6b8d 443d
00000030: faa0 053b 0806 39bc 4595 b03d 2ee3 523c

dense/bias f4 [32]
0.06605052 0.0019600026 -0.027525736 -0.0061455686 0.033534978 0.055692624 0.057586607 0.031507943
0.033375915 0.05045102 0.043579772 0.0 -0.00993108 -0.033721723 -0.0025796436 0.060591593
-0.0021717753 0.0031136295 -0.021930985 0.014912495 0.0076328306 -0.00044775096 -0.00066736917 -0.0158497
-0.026413297 0.0 0.019937966 0.016127685 -0.015240556 -0.010004705 -0.008008408 0.027676582
00000000: 7f45 873d 6373 003b a77d e1bc c460 c9bb
00000010: f95b 093d f31d 643d efdf 6b3d 790e 013d
00000020: 2fb5 083d bba5 4e3d b480 323d 0000 0000
00000030: f8b5 22bc ca1f 0abd 3d0f 29bb e42e 783d
00000040: 5854 0ebb 090e 4c3b 9ca8 b3bc 8a53 743c
00000050: d31c fa3b 1ec0 eab9 63f2 2eba 3bd7 81bc
00000060: b360 d8bc 0000 0000 f254 a33c 351e 843c
00000070: 86b3 79bc c6ea 23bc b335 03bc 00ba e23c

model/graph_convolution/MatMul_1 f4 [64, 9]
-0.49458817 0.1844264 0.34293678 -0.15954137 -0.24401942 0.17005862 0.037855573 0.37709746
-0.21951355 0.6774756 -0.029301591 -0.22731994 0.27843124 -0.098781064 -0.15867355 0.21195573
0.057073325 -0.10371633 -0.07376394 -0.022560675 0.3240531 -0.1943905 0.23466875 -0.322015
-0.18055531 0.3149343 -0.24140601 -0.35460234 0.02593639 0.29026163 0.1529353 -0.33163556
0.27518517 -0.15939073 0.2339377 -0.1634325 -0.3836752 0.28343543 0.1527987 -0.24966197
-0.14706674 -0.29866856 0.18410859 0.33727616 -0.049160495 -0.18219846 0.018526142 0.19138739
0.05826385 -0.17477058 0.10165291 -0.20522171 -0.083613135 0.21261144 0.73334014 -0.3100876
-0.11837961 0.13777663 -0.27329102 -0.19450592 0.28491712 -0.010841027 0.26611173 -0.31659558
0.083754934 -0.263534 -0.005249795 -0.0051880875 0.102830835 0.23379502 0.18682106 -0.05451042
0.4469422 0.12242094 -0.3673127 0.45875937 -0.001069101 -0.31304187 0.012469701 -0.1751584
-0.11820789 -0.18097916 0.24283 0.05430021 0.14292955 -0.21336532 0.30761206 -0.28476074
-0.11849991 0.11555373 0.5264528 -0.23603767 -0.46823627 -0.2874363 -0.22384837 0.44215092
0.0515071 -0.13035499 -0.116539635 0.33995047 -0.021012738 0.20858759 0.08047768 0.21113099
-0.19397646 0.061693817 0.36024356 -0.19530411 0.33585066 -0.5238751 0.6154511 -0.123798095
0.21594054 0.5077997 -0.00064810907 -0.3762077 -0.06772235 -0.27056384 0.09982954 -0.26864
-0.14398529 -0.0964303 0.2781538 -0.06813046 0.2500555 0.1869466 -0.28461567 0.4299183
0.35554036 -0.018845785 0.13283835 -0.2657989 0.24464014 0.21401805 -0.13777201 -0.46802112
-0.06516554 -0.4307362 -0.30469793 -0.033823457 0.25471532 0.20992628 0.1585911 -0.108804
-0.37809318 0.086979255 0.4411423 0.120238654 0.12552328 -0.29874864 -0.15422843 0.08393769
0.15817931 0.06851518 0.25030777 -0.41147777 -0.29380757 -0.35326016 -0.30314037 0.3403893
-0.09520382 -0.08859961 0.82054734 -0.49916217 -0.07150461 -0.23559883 0.2622767 -0.3066578
-0.22355217 0.17845006 0.098659135 0.69104105 0.123225115 -0.1292123 0.22530904 -0.13937832
-0.3978797 0.1528865 0.10529834 0.21082011 0.043217108 0.24098797 0.26364595 -0.23284823
-0.16431268 -0.16921023 -0.11787811 -0.06878755 0.19188063 -0.21152975 -0.028696809 -0.29090086
0.11430361 -0.39436716 -0.26256114 0.024798378 -0.18414211 -0.05190284 -0.1271681 0.018490354
0.41353422 0.15910572 0.36075863 0.14282754 0.18367396 -0.28208533 -0.09769415 -0.20234363
0.3011988 -0.26142532 0.038304195 0.26598305 -0.19926791 -0.11643926 -0.18213949 -0.07744889
-0.056843404 -0.1450365 0.25393263 -0.36383116 0.110591784 0.46833193 0.12172186 -0.08225529
-0.043005496 0.53909904 -0.032466926 -0.15267514 -0.031039579 -0.2062507 0.3650989 0.18416089
-0.29894894 -0.056626588 0.36231598 -0.2349031 -0.14005433 0.1128889 -0.28490144 -0.30778262
0.22218563 -0.30839956 -0.007455433 -0.5756957 -0.20712684 0.49909198 0.4085227 0.38101494
0.5253191 0.11426061 0.18383402 -0.11700904 -0.11687347 -0.14621359 0.22496738 -0.12605165
00000000: a93a fdbe 46da 3c3e 6995 af3e d05e 23be
00000010: 3ae0 79be d923 2e3e 720e 1b3d eb12 c13e
00000020: 29c8 60be 0a6f 2d3f e409 f0bc 8fc6 68be
00000030: 8a8e 8e3e ba4d cabd 527b 22be ec0a 593e
00000040: b8c5 693d 3a69 d4bd 8c11 97bd 2ad1 b8bc
00000050: 4aea a53e 4e0e 47be 014d 703e 26df a4be
00000060: 7ee3 38be 123f a13e 2333 77be 708e b5be
00000070: 8d78 d43c 2c9d 943e 129b 1c3e 23cc a9be
00000080: 12e5 8c3e 5337 23be 5d8d 6f3e d95a 27be
00000090: 1371 c4be 731e 913e 4377 1c3e 63a7 7fbe
000000a0: aa98 16be 16eb 98be f686 3c3e 76af ac3e
000000b0: 845c 49bd 3c92 3abe 23c4 973c 0efb 433e
000000c0: 13a6 6e3d 0ff7 32be 672f d03d a425 52be
000000d0: 5d3d abbd d0b6 593e 2ebc 3b3f cdc3 9ebe
000000e0: 0271 f2bd 5115 0d3e cdec 8bbe 8f2c 47be
000000f0: a8e0 913e 909e 31bc cc3f 883e d118 a2be
00000100: b587 ab3d eeed 86be 7906 acbb d500 aabb
00000110: f998 d23d f667 6f3e 054e 3f3e 5146 5fbd
00000120: 9cd5 e43e d4b7 fa3d 6910 bcbe 82e2 ea3e
00000130: 1421 8cba 0647 a0be b74d 4c3c b95c 33be
00000140: fa16 f2bd 9a52 39be 6da8 783e e669 5e3d
00000150: 205c 123e 707c 5abe 547f 9d3e 29cc 91be
00000160: 15b0 f2bd 6fa7 ec3d 9cc5 063f dcb3 71be
00000170: aabc efbe da2a 93be 8238 65be 9b61 e23e
00000180: 1cf9 523d c77b 05be 55ac eebd fd0d ae3e
00000190: e822 acbc fc97 553e 7bd1 a43d b932 583e
000001a0: c4a1 46be a8b2 7c3d d871 b83e cdfd 47be
000001b0: 9ef4 ab3e ae1c 06bf 348e 1d3f db89 fdbd
000001c0: 841f 5d3e 29ff 013f dde5 29ba 4c9e c0be
000001d0: 04b2 8abd 5887 8abe 6e73 cc3d 2f8b 89be
000001e0: e170 13be 407d c5bd 2d6a 8e3e fc87 8bbd
000001f0: 4607 803e ee6e 3f3e 25b9 91be 401e dc3e
00000200: 6309 b63e 7a62 9abc c706 083e cb16 88be
00000210: f282 7a3e 8c27 5b3e 1b14 0dbe 77a0 efbe
00000220: 8375 85bd 7589 dcbe 5e01 9cbe 778a 0abd
00000230: 0c6a 823e eaf6 563e b565 223e a2d4 debd
00000240: 6e95 c1be 2e22 b23d 67dd e13e af3f f63d
00000250: 2d89 003e 95f5 98be 0fee 1dbe 86e7 ab3d
00000260: c2f9 213e b051 8c3d 5728 803e 37ad d2be
00000270: f26d 96be 84de b4be 3735 9bbe 8247 ae3e
00000280: 38fa c2bd b673 b5bd 640f 523f 2f92 ffbe
00000290: 0271 92bd d240 71be 2249 863e 4002 9dbe
000002a0: dcea 64be 9dbb 363e cd0d ca3d 11e8 303f
000002b0: 735d fc3d 3b50 04be 6ab7 663e 31b9 0ebe
000002c0: e3b6 cbbe 478e 1c3e a8a6 d73d 3ae1 573e
000002d0: 6c04 313d 8dc5 763e 9afc 863e c46f 6ebe
000002e0: 9541 28be 7245 2dbe 146a f1bd 7de0 8cbd
000002f0: 5b7c 443e 419b 58be 9215 ebbc f5f0 94be
00000300: 0318 ea3d 7eea c9be 6a6e 86be f825 cb3c
00000310: c08f 3cbe 1398 54bd 5b38 02be 1579 973c
00000320: c2ba d33e 9cec 223e 5bb5 b83e 6241 123e
00000330: 0715 3c3e 7d6d 90be df13 c8bd 2b33 4fbe
00000340: bb36 9a3e 8ad9 85be dce4 1c3d ee2e 883e
00000350: e30c 4cbe b577 eebd c682 3abe 869d 9ebd
00000360: a1d4 68bd 7384 14be 7503 823e 1448 babe
00000370: f27d e23d 34c9 ef3e 4f49 f93d 7675 a8bd
00000380: 8826 30bd 6502 0a3f 0afc 04bd df56 1cbe
00000390: b746 febc 6233 53be 3eee ba3e ac94 3c3e
000003a0: d60f 99be 48f1 67bd 7b81 b93e 708a 70be
000003b0: 676a 0fbe 4c32 e73d 9ade 91be af95 9dbe
000003c0: a184 633e 8ce6 9dbe b44c f4bb cb60 13bf
000003d0: 0f19 54be fc88 ff3e e329 d13e 6414 c33e
000003e0: 507b 063f 7701 ea3d fc3e 3c3e 70a2 efbd
000003f0: 5c5b efbd 04b9 15be d95d 663e af13 01be

model/graph_convolution_1/MatMul_1 f4 [64, 64]
0.24484088 -0.032103192 0.3275896 0.07404902 0.1634756 -0.11240235 -0.17535946 0.04575133
0.21377946 -0.10098177 -0.024803152 0.18115844 -0.1587641 0.14135346 -0.06557501 -0.05487029
0.19003665 0.08190278 0.22727823 -0.24071671 0.2496297 -0.10291743 0.029186293 0.09375626
-0.037535578 -0.12214216 -0.13165039 0.065077156 0.15392558 -0.011691414 -0.07490698 -0.15541613
-0.17223634 -0.07051999 0.014261816 -0.039031018 -0.12712367 0.052791122 0.2240297 -0.20292144
-0.08289394 0.15424192 0.27467966 0.23056798 -0.35810265 0.112345755 -0.12927808 0.3523541
-0.013726695 0.24236703 -0.19343823 -0.029726438 0.048171557 0.06778514 -0.1300722 0.14773151
0.30408606 0.091002755 -0.0102876965 0.17272912 0.13730383 0.09341293 -0.011825244 -0.078015365
0.068479635 -0.015591135 0.2025922 -0.15683362 -0.2217112 -0.0031093946 0.08339592 0.036287952
0.04491907 0.20713544 0.22210635 -0.00376324 0.037199713 -0.027066447 -0.06800702 -0.022975495
0.33441606 -0.1039296 0.09814693 0.09434837 -0.18931875 -0.045344654 0.11770538 -0.07640863
-0.23964256 0.29311845 0.040498313 0.3439957 -0.053850524 -0.21280368 -0.09013149 0.020089244
0.32211694 0.03519009 -0.20538716 0.3175694 -0.038025633 0.31051496 0.24142343 0.06617505
-0.118488535 -0.08782874 0.04188373 0.023597026 -0.38470384 0.20490018 0.040309314 -0.0081888
0.26547435 0.14207616 0.30003485 0.059979167 0.02485913 0.0919148 0.32649103 0.025947066
0.12253442 0.37456432 -0.15715452 0.3740933 -0.02526559 0.41392338 0.25434843 0.19615467
-0.0658872 0.013170862 -0.024838988 0.057598174 -0.1578532 -0.05280965 0.07251489 -0.123044915
0.077487245 0.020524034 0.21553954 -0.13438794 0.021028478 -0.052161742 0.19810618 -0.06551383
0.084530644 0.03877035 -0.1865004 -0.039038174 -0.11487737 0.10548599 0.20730928 0.14277153
0.17833383 0.22075318 -0.1263533 0.08513484 -0.08508174 -0.001961594 0.09056149 0.08608268
0.068290025 0.17022909 -0.14488573 -0.054773282 -0.023366176 0.1822426 0.12940852 0.04879596
0.27129346 -0.022999926 0.3027139 0.11109652 -0.14046611 0.22765888 -0.17582248 0.042585697
-0.108216725 0.11641441 0.35222715 0.012429533 0.24687083 0.33580866 0.17748882 -0.1799699
-0.1620451 0.21047041 0.25114885 0.13051054 -0.00041453345 0.025696693 0.12936342 0.042069312
-0.120170265 0.24564911 0.058210604 0.11890275 0.17467733 -0.18364558 0.20191656 -0.038283583
0.21144807 -0.02752584 -0.42439649 0.15184473 -0.07466015 -0.15247215 0.15826097 -0.042117693
-0.22955404 0.17330518 -0.07447246 0.010486497 -0.19943057 0.13651355 0.05807198 -0.07088142
-0.19194125 -0.16695268 -0.02461352 -0.27706975 -0.0849029 -0.13108094 0.09465984 0.07370268
0.00807466 -0.0041710595 0.17582229 -0.08315291 0.05645222 -0.25462547 -0.17264608 -0.051210452
0.13460203 0.045640294 -0.15666337 0.07919266 0.23619607 0.12126432 0.22448619 -0.18344729
-0.1353027 -0.12838745 -0.14734145 -0.29816306 0.06419145 -0.22877511 -0.07944956 -0.023318566
-0.30147675 -0.18099312 0.011672912 -0.15535936 0.24425183 -0.18485408 -0.14235619 -0.14357845
00000000: 91b7 7a3e a37e 03bd d3b9 a73e 03a7 973d
00000010: 2666 273e 3433 e6bd 6e91 33be bf65 3b3d
00000020: 01e9 5a3e 88cf cebd fb2f cbbc 9981 393e
00000030: 0e93 22be f6be 103e 314c 86bd abbf 60bd
00000040: f898 423e a5bc a73d a0bb 683e 717e 76be
00000050: ee9e 7f3e 60c6 d2bd 1818 ef3c 4803 c03d
00000060: e8be 19bd ab25 fabd 5ccf 06be 2c47 853d
00000070: ab9e 1d3e 588d 3fbc d568 99bd 6825 1fbe
00000080: b95e 30be c96c 90bd 64aa 693c fdde 1fbd
00000090: b52c 02be 813b 583d 0b68 653e a3ca 4fbe
000000a0: 4cc4 a9bd 98f1 1d3e d0a2 8c3e 031a 6c3e
000000b0: 3b59 b7be 8815 e63d 7961 04be c267 b43e
000000c0: efe5 60bc 102f 783e ac14 46be dc84 f3bc
000000d0: 8a4f 453d efd2 8a3d a631 05be ee46 173e
000000e0: 2bb1 9b3e a75f ba3d ba8d 28bc e7df 303e
000000f0: 6099 0c3e 474f bf3d abbe 41bc 85c6 9fbd
00000100: 0d3f 8c3d f671 7fbc 5474 4f3e fe98 20be
00000110: 4308 63be fcc6 4bbb 7bcb aa3d ada2 143d
00000120: 0ffd 373d 501b 543e d96f 633e b1a0 76bb
00000130: ba5e 183d 74ba ddbc 4447 8bbd 1b37 bcbc
00000140: 9538 ab3e 0bd9 d4bd 4201 c93d b839 c13d
00000150: c6dc 41be 51bb 39bd 850f f13d 217c 9cbd
00000160: dc64 75be 9f13 963e 8fe1 253d 3420 b03e
00000170: 5e92 5cbd 35e9 59be dc96 b8bd 3392 a43c
00000180: 83ec a43e 7c23 103d 0351 52be 7598 a23e
00000190: c4c0 1bbd d1fb 9e3e b437 773e c986 873d
000001a0: 1eaa f2bd 8edf b3bd 468e 2b3d 8d4e c13c
000001b0: e7f7 c4be 5ad1 513e 611b 253d 512a 06bc
000001c0: 41ec 873e 6a7c 113e 2b9e 993e b7ac 753d
000001d0: 60a5 cb3c d43d bc3d d529 a73e f18e d43c
000001e0: 53f3 fa3d e5c6 bf3e 1ded 20be 2889 bf3e
000001f0: c8f9 cebc c4ed d33e f539 823e c5dc 483e
00000200: deef 86bd 99ca 573c 227b cbbc 10ec 6b3d
00000210: 45a4 21be ee4e 58bd b082 943d f9fe fbbd
00000220: a2b1 9e3d 0522 a83c 66b6 5c3e fe9c 09be
00000230: ea43 ac3c 8da7 55bd 59dc 4a3e 1d2c 86bd
00000240: 671e ad3d a9cd 1e3d f6f9 3ebe 7ee6 1fbd
00000250: d444 ebbd 0a09 d83d e248 543e b332 123e
00000260: 259d 363e 1f0d 623e c262 01be 2d5b ae3d
00000270: 563f aebd 168e 00bb 4d78 b93d 1e4c b03d
00000280: a4db 8b3d 8950 2e3e ed5c 14be f359 60bd
00000290: 6c6a bfbc ce9d 3a3e ab83 043e 46de 473d
000002a0: fae6 8a3e 576a bcbc 51fd 9a3e 9386 e33d
000002b0: 59d6 0fbe 691f 693e cf0a 34be 576e 2e3d
000002c0: bba0 ddbd ae6a ee3d 1e57 b43e 3da5 4b3c
000002d0: b5cb 7c3e 1def ab3e a1bf 353e 084a 38be
000002e0: 27ef 25be 8e85 573e 9596 803e 8ea4 053e
000002f0: bd55 d9b9 df81 d23c d877 043e df50 2c3d
00000300: d41b f6bd 718b 7b3e 3e6e 6e3d 4983 f33d
00000310: 9dde 323e 960d 3cbe 37c3 4e3e 3fcf 1cbd
00000320: d885 583e df7d e1bc 7f4a d9be 2f7d 1b3e
00000330: 6ce7 98bd a921 1cbe 2a0f 223e 9a83 2cbd
00000340: 3710 6bbe ea76 313e 0485 98bd 8ecf 2b3c
00000350: 8737 4cbe 35ca 0b3e e2dc 6d3d 472a 91bd
00000360: 3f8c 44be a5f5 2abe 4ba2 c9bc 16dc 8dbe
00000370: 92e1 adbd 153a 06be 05dd c13d 6ef1 963d
00000380: 944b 043c 62ad 88bb c20a 343e 134c aabd
00000390: 713a 673d 455e 82be 22ca 30be 0dc2 51bd
000003a0: 1dd5 093e 51f1 3a3d 5d6c 20be c32f a23d
000003b0: 62dd 713e 6e59 f83d b5df 653e 9bd9 3bbe
000003c0: ca8c 0abe 0078 03be ade0 16be d4a8 98be
000003d0: cf76 833d 0644 6abe 73b6 a2bd 9406 bfbc
000003e0: 295b 9abe 4356 39be be3f 3f3c 8616 1fbe
000003f0: 271d 7a3e 634a 3dbe d2c5 11be 3b06 13be

model/graph_convolution_2/MatMul_1 f4 [64, 64]
0.12324907 0.13043484 0.1590361 0.23071267 -0.11060702 -0.014616558 -0.047279872 -0.1636078
-0.1563345 0.12919647 -0.05830094 -0.15113601 0.03332765 0.09836506 0.031042285 -0.25345558
-0.065425746 0.23618013 -0.17025228 0.24327509 -0.05714936 -0.23992234 0.17166142 0.096417464
-0.05230159 0.023224637 0.04917186 0.012952641 -0.20709729 -0.065166615 0.13613398 0.092499405
0.0705805 0.064551234 0.21307974 0.26474214 -0.31044245 0.10960559 -0.022728845 0.03564167
-0.13266635 -0.21625109 0.16953626 -0.18507095 -0.095052555 0.013180623 0.21876441 -0.062213667
-0.15737763 -0.029057484 0.14355862 -0.03436737 0.12403899 -0.17609487 0.08421387 -0.14302754
-0.17546938 -0.033655025 -0.19105797 0.13791443 -0.019255195 0.09823951 0.15921207 -0.24464141
-0.22200929 -0.12719437 -0.2203083 0.35023454 -0.024125447 -0.2579977 -0.07280534 0.018692406
0.10978226 0.17492935 0.18767788 -0.03295781 -0.010547072 0.15630117 -0.034102872 -0.01648398
-0.10457486 -0.19558303 0.2678258 0.124600396 0.0347031 0.03125618 0.06418657 0.0485239
-0.29443008 0.08578872 0.32493493 -0.08741876 -0.13197216 0.2523546 0.013438206 -0.16814028
0.04735745 0.079879865 0.2534923 0.14917478 -0.48860928 -0.029154014 -0.17741303 0.25449955
0.15631513 0.029324492 0.26250327 -0.13558578 0.17559993 0.026682377 0.22791494 0.21636447
-0.2891207 0.10923347 -0.16615002 0.10182638 0.078075364 -0.034043573 -0.1801195 0.107652396
0.07297694 0.21700391 -0.3072648 0.33157837 -0.2283588 -0.08097777 0.29822242 -0.2730087
-0.1889423 -0.24719864 0.2850473 -0.011054084 0.059178036 -0.03569954 -0.14003569 -0.25983265
-0.2694537 -0.13786264 0.04248572 0.06749855 0.22707638 0.114335686 -0.14785531 -0.10996451
-0.29591954 0.1080252 0.18874061 0.0366471 -0.13461442 0.13830797 0.19079141 -0.105910555
-0.16037951 0.10487748 0.06303033 0.08999424 -0.051978406 0.18291177 0.17222247 -0.14130911
-0.22818685 0.20937 0.040225457 0.19427872 -0.19757272 -0.08265736 -0.112817965 -0.08470211
0.118810534 -0.09661867 0.0359593 -0.07439225 -0.21770763 0.17907843 -0.11074334 0.07119954
-0.17141913 -0.08472455 0.11292423 0.14814086 0.014357872 -0.21492225 0.08739294 0.14065334
0.020672545 -0.062494416 -0.091499686 0.2418261 0.19044487 0.024543962 -0.03390716 -0.110752374
0.031633295 -0.46384126 -0.033003096 -0.35658655 -0.0044806055 0.3050801 0.045937948 -0.13230906
-0.24017313 -0.06505042 -0.35765567 0.02474464 0.28220567 0.21349898 0.150001 -0.1837813
0.07352271 -0.15608956 -0.060521007 0.0076369713 0.077984996 0.03209856 -0.26643446 0.0035425366
0.22080705 -0.22872816 -0.40475243 -0.010529823 -0.26680747 -0.08993872 -0.16143037 0.23539437
0.2583085 -0.110621735 -0.050732 -0.31517074 -0.27297804 0.083588906 0.19141369 0.23585464
0.24273592 0.18519628 0.057276867 -0.018920414 0.113893345 -0.14395276 0.12519717 0.03955597
-0.26932615 -0.3464055 0.113288745 0.036849543 -0.24346565 -0.14626399 0.09061028 0.31661603
-0.39289573 -0.33989108 0.10403712 -0.26830536 -0.12548259 0.07816006 -0.21329735 -0.5372338
00000000: 026a fc3d b690 053e 5cda 223e f13f 6c3e
00000010: ef85 e2bd 4a7a 6fbc 8aa8 41bd ce88 27be
00000020: 2716 20be 144c 043e f7cc 6ebd 66c3 1abe
00000030: 9382 083d 9f73 c93d 644c fe3c eec4 81be
00000040: effd 85bd 34d9 713e 9d56 2ebe 1b1d 793e
00000050: 7315 6abd 34ae 75be 03c8 2f3e 8576 c53d
00000060: 313a 56bd 9841 be3c 6f68 493d 5037 543c
00000070: 5011 54be 1376 85bd b566 0b3e 5470 bd3d
00000080: 828c 903d 7033 843d 9331 5a3e 488c 873e
00000090: 50f2 9ebe e578 e03d d831 babc 00fd 113d
000000a0: b0d9 07be ed70 5dbe ea9a 2d3e 3d83 3dbe
000000b0: eaaa c2bd 8af3 573c c703 603e c2d3 7ebd
000000c0: 9a27 21be f609 eebc 0801 133e cdc4 0cbd
000000d0: 2708 fe3d 3752 34be 5278 ac3d d075 12be
000000e0: 3fae 33be dad9 09bd b3a4 43be 7139 0d3e
000000f0: 12bd 9dbc cc31 c93d 7d08 233e 4783 7abe
00000100: 6756 63be 3e3f 02be 8098 61be f151 b33e
00000110: bba2 c5bc 4618 84be f71a 95bd d120 993c
00000120: 86d5 e03d ae20 333e a12e 403e c5fe 06bd
00000130: a0cd 2cbc 6a0d 203e 74af 0bbd 6909 87bc
00000140: 582b d6bd eb46 48be 7720 893e 7e2e ff3d
00000150: d624 0e3d 7b06 003d 4074 833d ffc0 463d
00000160: 8abf 96be ffb1 af3d df5d a63e 9b08 b3bd
00000170: b623 07be 9f34 813e ec2b 5c3c f72c 2cbe
00000180: e3f9 413d 0e98 a33d bec9 813e 46c1 183e
00000190: ff2a fabe 66d4 eebc c3ab 35be c44d 823e
000001a0: 1311 203e eb39 f03c d466 863e 00d7 0abe
000001b0: 78d0 333e 0095 da3c 8962 693e a68e 5d3e
000001c0: a107 94be ccb5 df3d 3b23 2abe 598a d03d
000001d0: fae5 9f3d 4671 0bbd 3f71 38be dc78 dc3d
000001e0: ef74 953d 4636 5e3e d051 9dbe a4c4 a93e
000001f0: e4d6 69be acd7 a5bd 9cb0 983e ccc7 8bbe
00000200: 177a 41be a421 7dbe b8f1 913e 301c 35bc
00000210: ab64 723d ae39 12bd 8465 0fbe c908 85be
00000220: d6f5 89be dd2b 0dbe 8205 2e3d ae3c 8a3d
00000230: b686 683e d428 ea3d 6267 17be 1335 e1bd
00000240: c482 97be 513c dd3d 3845 413e 451b 163d
00000250: 5dd8 09be 9ba0 0d3e d35e 433e a2e7 d8bd
00000260: 873a 24be 01ca d63d 0c16 813d e64e b83d
00000270: 4fe7 54bd 394d 3b3e 165b 303e 56b3 10be
00000280: d0a9 69be 1765 563e 73c3 243d 00f1 463e
00000290: 8150 4abe 4348 a9bd 1b0d e7bd 4d78 adbd
000002a0: f052 f33d 02e0 c5bd 0f4a 133d f75a 98bd
000002b0: c0ee 5ebe 5660 373e 67cd e2bd 10d1 913d
000002c0: 7f88 2fbe 1184 adbd d244 e73d 3db2 173e
000002d0: 483d 6b3c 9414 5cbe 12fb b23d 6e07 103e
000002e0: 7859 a93c 25fa 7fbd 3064 bbbd 43a1 773e
000002f0: fb03 433e 6b10 c93c 3ce2 0abd 24d2 e2bd
00000300: ea91 013d 9a7c edbe 412e 07bd 8392 b6be
00000310: 0bd2 92bb 7533 9c3e 6e29 3c3d 077c 07be
00000320: f2ef 75be 2839 85bd a51e b7be 45b5 ca3c
00000330: 437d 903e 7a9f 5a3e dd99 193e 2a31 3cbe
00000340: 1393 963d f1d5 1fbe e0e4 77bd 8f3f fa3b
00000350: 99b6 9f3d c879 033d 196a 88be e729 683b
00000360: 3e1b 623e b737 6abe b63b cfbe 4785 2cbc
00000370: fd9a 88be cb31 b8bd 014e 25be 390b 713e
00000380: 0341 843e a68d e2bd 5ccc 4fbd 0f5e a1be
00000390: c7c3 8bbe a930 ab3d f301 443e e183 713e
000003a0: c48f 783e 18a4 3d3e 269b 6a3d fcfe 9abc
000003b0: ea40 e93d 5a68 13be b033 003e 7105 223d
000003c0: 1ee5 89be 105c b1be ee03 e83d 8cef 163d
000003d0: 0f4f 79be 3ac6 15be e291 b93d 7f1b a23e
000003e0: a129 c9be 3406 aebe 6a11 d53d 525f 89be
000003f0: 827e 00be 6212 a03d 9f6a 5abe 2888 09bf

model/dense/MatMul f4 [32, 64]
0.41031277 0.30035576 0.3421349 0.12684026 -0.031484473 -0.22494386 0.30430454 0.42364162
0.2864917 -0.21949404 0.30616087 0.34368336 -0.094536275 -0.14695092 0.12768868 0.13128892
-0.2866464 0.35790035 -0.043401644 -0.0034051477 0.28075206 0.10331335 -0.15329102 -0.069835246
-0.17217304 0.12134924 0.18953876 0.20575139 0.10275642 0.17841007 0.05787075 0.26400742
0.23816293 0.31671804 -0.22760181 0.25822657 0.39855668 -0.17120668 0.17202549 0.36649206
-0.23456788 0.028545182 0.19001834 -0.08103573 0.2834628 0.289992 -0.1906242 0.21231772
0.16368799 0.27407718 -0.2353702 0.3313556 -0.10292827 0.07002782 0.15871447 0.09710907
-0.23023935 -0.11698374 -0.06582743 0.32418507 0.21968365 0.029928556 -0.14498022 -0.20026559
0.24913165 0.19558153 0.007162061 0.015564137 -0.011657454 0.26260856 -0.05453619 0.055890776
0.27689463 -0.18578352 0.21815453 0.1436968 -0.081678145 0.35276455 0.35819596 0.4683175
0.26245692 -0.05721874 0.24648097 0.37646684 0.14396937 0.05662187 -0.13233528 0.06668821
0.26839787 0.007031068 0.25592914 -0.17791894 -0.26025343 -0.13951704 0.1317206 0.24983087
0.3180605 0.050029587 0.019101087 -0.10817397 0.24543692 0.14504197 0.094214804 0.13587366
0.23092555 0.13317113 0.18971485 -0.020129588 -0.001335157 0.32174543 0.1043452 0.45917973
-0.06331244 0.1080631 0.059095483 0.16680336 0.16703416 -0.18897055 0.22612268 0.1502512
0.3101593 -0.12749992 0.3369924 0.2931238 0.019822365 -0.2059272 -0.24547246 0.3076205
-0.0012461831 -0.121049985 0.12751354 -0.20168868 -0.03453174 0.15155867 -0.26094174 -0.27853352
0.034756865 0.095294096 0.019567149 -0.15596627 -0.21576235 -0.066882916 -0.16554831 0.13211592
-0.048843514 0.16691162 0.16130601 -0.083175324 0.04594485 0.01777858 -0.029033659 0.14139575
0.1022262 -0.17160553 -0.14155008 0.074632764 -0.24696872 0.06731504 -0.16789298 -0.011750514
0.121154085 -0.08556368 -0.15597843 -0.04365478 0.08583668 -0.22483549 -0.13019422 0.02814002
0.14383298 -0.1074289 -0.24905264 -0.17810442 -0.117302656 0.025414312 -0.06301347 -0.1446364
-0.051078543 -0.07849226 0.19703415 0.08412034 -0.18951389 0.20968834 0.10512369 0.033388164
0.121330716 -0.18739542 -0.0039426717 -0.0087342085 -0.005352217 -0.17867802 -0.06256853 0.20309047
0.1465151 -0.24840142 -0.07445055 0.0940103 0.07656758 -0.036566608 -0.21704027 -0.038148034
-0.14292978 0.04483364 0.10409374 -0.22820136 -0.14932072 0.20008802 -0.06811996 -0.1428045
0.049093585 0.13928151 -0.037428964 0.23029962 -0.23106615 0.05602221 -0.13902754 0.015420307
-0.08230221 -0.09993696 -0.07043534 -0.16345793 -0.19164997 0.2098482 -0.2152831 -0.03418868
-0.015713079 -0.20570524 0.08631189 -0.14108184 -0.039462358 0.14392078 0.16544844 -0.03276497
0.14981209 -0.037128687 -0.09514441 0.1410796 -0.22578323 -0.09937265 -0.061248347 -0.07711804
-0.1993974 -0.058213066 0.11332016 -0.08109377 0.09863853 0.0072510773 -0.148245 0.14328128
-0.08154165 -0.06362051 0.1683927 0.06960195 -0.25443956 0.12894346 -0.078335345 0.10950503
00000000: 8414 d23e 3bc8 993e 4e2c af3e 6ae2 013e
00000010: ddf5 00bd af57 66be cecd 9b3e 8ee7 d83e
00000020: 0aaf 923e 0cc3 60be 1ec1 9c3e 44f7 af3e
00000030: 3c9c c1bd 4d7a 16be d2c0 023e 9a70 063e
00000040: 51c3 92be b73e b73e ecc5 31bd e628 5fbb
00000050: bcbe 8f3e f395 d33d 52f8 1cbe c805 8fbd
00000060: 214e 30be f385 f83d 7316 423e 7eb0 523e
00000070: f571 d23d 21b1 363e e109 6d3d fb2b 873e
00000080: fce0 733e de28 a23e 7310 69be 4636 843e
00000090: 9f0f cc3e ce50 2fbe 7327 303e d9a4 bb3e
000000a0: 9032 70be 96d7 e93c 2b94 423e 10f6 a5bd
000000b0: 0922 913e d579 943e fe32 43be d169 593e
000000c0: d39d 273e d853 8c3e e304 71be 71a7 a93e
000000d0: 0fcc d2bd bf6a 8f3d 0c86 223e 1fe1 c63d
000000e0: ddc3 6bbe 2c95 efbd 88d0 86bd 96fb a53e
000000f0: c0f4 603e bb2c f53c b275 14be 6c12 4dbe
00000100: 5e1c 7f3e 8646 483e b9af ea3b b900 7f3c
00000110: e8fe 3ebc a174 863e 5761 5fbd baed 643d
00000120: 22c5 8d3e 093e 3ebe e763 5f3e 4125 133e
00000130: df46 a7bd 8e9d b43e 7665 b73e 50c7 ef3e
00000140: c160 863e 335e 6abd 8265 7c3e 43c0 c03e
00000150: b56c 133e 55ec 673d e682 07be d493 883d
00000160: 726b 893e e064 e63b 2509 833e 6230 36be
00000170: f03f 85be 8edd 0ebe c4e1 063e aad3 7f3e
00000180: d3d8 a23e d3eb 4c3d e279 9c3c 508a ddbd
00000190: d153 7b3e e285 143e b1f3 c03d 7722 0b3e
000001a0: bf77 6c3e 035e 083e 9c44 423e cee6 a4bc
000001b0: 6f00 afba d1bb a43e f0b2 d53d 9b19 eb3e
000001c0: f4a9 81bd 3050 dd3d 1b0e 723d 80ce 2a3e
000001d0: 010b 2b3e 7f81 41be b48c 673e 73db 193e
000001e0: 33cd 9e3e 578f 02be 458a ac3e 5314 963e
000001f0: 8362 a23c 94de 52be 225d 7bbe 6f80 9d3e
00000200: f756 a3ba 0ee9 f7bd e992 023e 7a87 4ebe
00000210: 2771 0dbd 3232 1b3e 289a 85be f29b 8ebe
00000220: 375d 0e3d 8d29 c33d 494b a03c 9fb5 1fbe
00000230: cef0 5cbe e9f9 88bd 7f85 29be 6549 073e
00000240: 2310 48bd e1ea 2a3e 672d 253e d357 aabd
00000250: ab30 3c3d 62a4 913c ffd7 edbc 0cca 103e
00000260: f85b d13d 5cb9 2fbe 81f2 10be 10d9 983d
00000270: 5ee5 7cbe 78dc 893d 23ec 2bbe 3a85 40bc
00000280: a21f f83d 033c afbd cfb8 1fbe 5bcf 32bd
00000290: 24cb af3d 463b 66be a251 05be e685 e63c
000002a0: f448 133e af03 dcbd a807 7fbe 0161 36be
000002b0: 603c f0bd ad31 d03c 350d 81bd 901b 14be
000002c0: bc37 51bd 8dc0 a0bd 52c3 493e 4947 ac3d
000002d0: ee0f 42be 8ab8 563e 174b d73d 07c2 083d
000002e0: 3d7c f83d 96e4 3fbe 8731 81bb ed19 0fbc
000002f0: a661 afbb 5ff7 36be ee23 80bd f3f6 4f3e
00000300: 0e08 163e f15c 7ebe 8879 98bd 7988 c03d
00000310: 77cf 9c3d dec6 15bd ce3f 5ebe 1d41 1cbd
00000320: 2f5c 12be 7ba3 373d 192f d53d 9ead 69be
00000330: 88e7 18be e0e3 4c3e 7a82 8bbd 583b 12be
00000340: 5b16 493d d09f 0e3e 1d4f 19bd aad3 6b3e
00000350: 9b9c 6cbe 8b77 653d 3c5d 0ebe 75a5 7c3c
00000360: 108e a8bd c0ab ccbd 6740 90bd 8461 27be
00000370: e43f 44be 72e2 563e 2c73 5cbe 6e09 0cbd
00000380: b7b8 80bc 65a4 52be 4ac4 b03d c277 10be
00000390: 48a3 21bd f85f 133e 516b 293e 9034 06bd
000003a0: 5768 193e 4014 18bd 13db c2bd 2c77 103e
000003b0: b833 67be e383 cbbd 8cdf 7abd 10f0 9dbd
000003c0: d52e 4cbe d370 6ebd 6614 e83d 7e14 a6bd
000003d0: ff02 ca3d 729a ed3b 8acd 17be 54b8 123e
000003e0: 4fff a6bd 784b 82bd 236f 2c3e 788b 8e3d
000003f0: e745 82be c109 043e 486e a0bd 2c44 e03d

model/dense_1/MatMul f4 [16, 32]
-0.17080396 0.04781311 0.008562726 -0.18468176 -0.07140026 -0.15934865 -0.21439153 0.2051104
0.27611974 -0.32698974 -0.22848508 0.1502907 0.04352793 -0.16036923 0.10337064 -0.020494312
-0.29924 -0.016593456 -0.1407674 -0.20941103 -0.31780714 0.00079506636 0.2571319 -0.2993847
-0.30602765 -0.16111442 0.10248539 0.27661073 -0.076434225 -0.025492115 0.29081377 -0.21472521
0.4676384 0.05599878 -0.35843125 -0.08750874 -0.0997164 0.4301838 0.3385246 -0.30745077
0.13886353 0.40699217 0.2475275 0.01693359 -0.17959462 0.093045264 -0.3481402 0.4732666
-0.13079779 -0.02384731 -0.11974991 0.0816506 -0.019259006 0.0016844902 0.08551247 0.3772675
-0.27191535 -0.13102815 -0.31014922 -0.25629693 -0.28936017 0.12145757 -0.19539413 0.26642984
-0.050293922 -0.1776633 -0.08810797 0.052049845 0.17515895 0.2075856 -0.20182988 0.20015958
0.13113451 -0.25117093 -0.24302235 -0.21093224 0.101147115 -0.2583639 -0.078098774 0.032405436
0.25765327 -0.07968849 -0.33788276 -0.16503517 0.06906393 -0.23959969 0.056170613 0.06862408
-0.34606725 0.028841496 -0.24063963 -0.31638914 -0.35004956 0.11393422 -0.28273252 0.09969583
-0.057794914 0.29432115 -0.04120966 0.01865785 0.11090907 0.22354603 0.3700485 -0.061090883
0.38086814 -0.09639723 0.29002553 0.2640827 0.06552887 -0.063835554 -0.22611237 0.3635259
-0.24409923 0.21055587 0.16199777 0.06498002 0.14728417 0.061781123 -0.21426603 -0.25784132
0.04925417 -0.13931987 0.3686932 -0.27341834 -0.27569377 -0.00713206 0.2782921 -0.33244756
-0.16555603 -0.11948715 -0.32906717 -0.048240185 0.3263894 0.20233497 -0.23746091 -0.1790914
-0.12292625 -0.2313551 0.28259572 0.29417893 -0.34754494 0.077011645 -0.31286904 -0.20856115
0.13346532 0.14620379 -0.043890893 -0.010049075 -0.22620137 -0.06953481 0.23861995 -0.34296003
-0.33207795 -0.30892536 -0.060209483 0.20546481 -0.0601514 -0.2498402 0.05285123 -0.27538127
-0.026456336 0.23648636 -0.30219868 -0.08415588 0.034726255 -0.40594643 -0.23773359 -0.13789752
0.34239438 -0.17671806 -0.019920232 0.26590928 0.4917611 -0.25422853 -0.1914515 -0.08664815
-0.26343164 -0.50374246 0.0595448 -0.3873831 -0.1294208 -0.04461335 0.3292028 0.2581641
0.065857284 -0.12434837 0.425806 0.402796 0.032141812 -0.10291923 0.25680888 0.3453998
-0.28480297 -0.065540835 0.01313219 -0.30185953 0.23503469 0.19319573 0.048781123 -0.09184146
-0.24786808 -0.35906574 -0.039973363 -0.35109663 0.3889407 0.21755047 0.17797883 0.027008226
-0.28511164 -0.08905207 0.16435884 0.20536098 -0.034421362 0.09050944 0.38658607 0.0855593
0.27666625 0.021696448 0.02600213 0.017813362 0.13452363 -0.2314802 0.17440677 0.12137809
-0.16079064 -0.16673025 0.23133597 0.2799519 0.18405716 -0.23245779 -0.36824697 0.23036574
0.1977927 -0.16791283 0.1686684 -0.2335774 -0.15479392 0.070089005 0.17944714 0.08666074
0.005865957 0.098118104 -0.049284343 0.26440144 -0.16332915 0.34537902 -0.3945935 -0.076392256
0.025613792 0.27291062 -0.029934214 -0.25615767 -0.09513745 0.26355192 0.27354333 0.27437612
00000000: 3ce7 2ebe aed7 433d ad4a 0c3c 371d 3dbe
00000010: 4d3a 92bd 4b2c 23be 7489 5bbe 7608 523e
00000020: 915f 8d3e 336b a7be fef7 69be cee5 193e
00000030: 584a 323d d537 24be fcb3 d33d b0e3 a7bc
00000040: fc35 99be 00ef 87bc 5425 10be d86f 56be
00000050: 9eb7 a2be 006c 503a cba6 833e f448 99be
00000060: a8af 9cbe 2efb 24be dce3 d13d ec9f 8d3e
00000070: 8c89 9cbd d7d4 d0bc 8be5 943e ede0 5bbe
00000080: 4d6e ef3e fa5e 653d 4d84 b7be c837 b3bd
00000090: 1d38 ccbd 0d41 dc3e 1953 ad3e 306a 9dbe
000000a0: 3e32 0e3e 4761 d03e d977 7d3e 50b8 8a3c
000000b0: a7e7 37be 848e be3d 6f3f b2be 0050 f23e
000000c0: dbef 05be 6f5b c3bc 713f f5bd 6e38 a73d
000000d0: 10c5 9dbc 1dca dc3a 2921 af3d 3529 c13e
000000e0: 7d38 8bbe 3e2c 06be e1cb 9ebe 5a39 83be
000000f0: 0427 94be bfbe f83d 6615 48be 7e69 883e
00000100: 0001 4ebd 5eed 35be f471 b4bd 3832 553d
00000110: de5c 333e 5291 543e 7eac 4ebe a2f6 4c3e
00000120: 2048 063e 7a99 80be dada 78be 9ffe 57be
00000130: 3826 cf3d 4648 84be 40f2 9fbd 90bb 043d
00000140: 21eb 833e b833 a3bd f8fe acbe fbfe 28be
00000150: 6471 8d3d 9f59 75be 2813 663d c88a 8c3d
00000160: ba2f b1be 0045 ec3c 3c6a 76be c2fd a1be
00000170: b239 b3be 5856 e93d 51c2 90be 542d cc3d
00000180: 5cba 6cbd 43b1 963e 76cb 28bd 59d8 983c
00000190: 4b24 e33d 40e9 643e ff76 bd3e 6f3a 7abd
000001a0: 2601 c33e e96b c5bd 3a7e 943e d935 873e
000001b0: 0034 863d 37bc 82bd 008a 67be 1120 ba3e
000001c0: 26f5 79be f59b 573e bee2 253e 3f14 853d
000001d0: a9d1 163e 340e 7d3d 8e68 5bbe c703 84be
000001e0: bebe 493d dea9 0ebe 5bc5 bc3e 7dfd 8bbe
000001f0: bc27 8dbe 0eb4 e9bb 4d7c 8e3e 9136 aabe
00000200: 8587 29be aeb5 f4bd 7e7b a8be 8097 45bd
00000210: 831c a73e e630 4f3e f428 73be bc63 37be
00000220: c2c0 fbbd 5ae8 6cbe 63b0 903e 9f9e 963e
00000230: 69f1 b1be 48b8 9d3d 5f30 a0be 0e91 55be
00000240: 22ab 083e 72b6 153e f0c6 33bd e0a4 24bc
00000250: 55a1 67be 4468 8ebd ca58 743e 7598 afbe
00000260: 1f06 aabe 772b 9ebe 389e 76bd 5e65 523e
00000270: 5061 76bd 1cd6 7fbe 887a 583d c6fe 8cbe
00000280: f5ba d8bc 7b29 723e c9b9 9abe eb59 acbd
00000290: 1e3d 0e3d 36d8 cfbe 6f70 73be 0235 0dbe
000002a0: 514e af3e 94f5 34be c12f a3bc 4325 883e
000002b0: 1cc8 fb3e 3e2a 82be dd0b 44be 9674 b1bd
000002c0: 83e0 86be 44f5 00bf 40e5 733d 1457 c6be
000002d0: e386 04be 7dbc 36bd 458d a83e 162e 843e
000002e0: 2fe0 863d 5caa febd 3e03 da3e 473b ce3e
000002f0: 22a7 033d 51c7 d2bd 747c 833e 3ed8 b03e
00000300: b2d1 91be 463a 86bd 6628 573c 558d 9abe
00000310: efac 703e 1ad5 453e b7ce 473d 6017 bcbd
00000320: 21d1 7dbe 77d7 b7be 1cbb 23bd f0c2 b3be
00000330: 3c23 c73e 8dc5 5e3e 1540 363e 5b40 dd3c
00000340: 27fa 91be ef60 b6bd af4d 283e 264a 523e
00000350: 6afd 0cbd 035d b93d 9cee c53e b739 af3d
00000360: 33a7 8d3e c0bc b13c 6b02 d53c 54ed 913c
00000370: 90c0 093e 2509 6dbe b097 323e 1395 f83d
00000380: 4da6 24be 56bb 2abe 56e3 6c3e db55 8f3e
00000390: 7b79 3c3e 6a09 6ebe de8a bcbe ffe4 6b3e
000003a0: 2b8a 4a3e 57f1 2bbe 69b7 2c3e ea2e 6fbe
000003b0: 4c82 1ebe d38a 8f3d fec0 373e 307b b13d
000003c0: 3737 c03b 25f2 c83d 61de 49bd a05f 873e
000003d0: c23f 27be 85d5 b03e 2908 cabe 8b73 9cbd
000003e0: 04d4 d13c f1ba 8b3e 9938 f5bc 1927 83be
000003f0: 6cd7 c2bd 47f0 863e df0d 8c3e 077b 8c3e

model/dense_2/MatMul f4 [6, 16]
0.0003005539 0.34035668 -0.23032752 0.19661629 0.2856136 -0.29437557 -0.35689998 -0.41838536
0.41837367 -0.46790913 -0.19634086 -0.17458095 -0.082620956 0.5515016 -0.66360956 -0.30124062
-0.37213448 0.16840845 -0.35109577 0.19891652 0.2987432 0.26464334 -0.4336344 0.16440327
-0.46786132 0.27550912 0.14066282 0.23609076 -0.4960715 0.4359101 -0.37930462 0.45661566
0.17561744 -0.19777094 0.07820988 -0.17705768 -0.22001919 0.2236606 -0.08706162 -0.20583025
0.31335312 -0.6608947 0.46288756 -0.022223162 -0.02210939 0.33435953 -0.17802112 -0.29721195
-0.5107902 0.3177513 0.18748957 -0.54193324 0.002204299 -0.26258993 -0.43110308 -0.09540003
-0.1088952 -0.024873402 0.45960838 -0.09913525 0.28416678 0.054985493 0.4062565 -0.56901515
0.08449236 0.10609408 0.5166083 0.37626994 -0.09958997 -0.5629469 -0.1469142 -0.044838306
0.20618254 -0.47573724 -0.3323622 0.5303912 -0.3380753 -0.52290446 0.18695852 0.2615893
-0.22607836 -0.70183724 0.10661745 -0.21382318 0.49551934 0.3789302 -0.07791535 0.2030927
-0.10993419 0.5248081 0.26396817 -0.6258982 -0.076600194 0.18230063 0.1675025 -0.4927942
00000000: a993 9d39 3b43 ae3e fada 6bbe c855 493e
00000010: f23b 923e 65b8 96be 98bb b6be 9b36 d6be
00000020: 1335 d63e c991 efbe 940d 49be 59c5 32be
00000030: 2d35 a9bd 352f 0d3f 51e2 29bf 363c 9abe
00000040: 6988 bebe 4473 2c3e d3c2 b3be c6b0 4b3e
00000050: def4 983e 557f 873e 5405 debe 5559 283e
00000060: 858b efbe 880f 8d3e ea09 103e c7c1 713e
00000070: 15fd fdbe 9c2f df3e 3734 c2be 87c9 e93e
00000080: 0fd5 333e 7784 4abe 802c a03d 9c4e 35be
00000090: b64c 61be 4907 653e 5d4d b2bd 2ac5 52be
000000a0: d26f a03e 6530 29bf 99ff ec3e 590d b6bc
000000b0: c01e b5bc 2c31 ab3e 2b4b 36be 2a2c 98be
000000c0: 26c3 02bf 4cb0 a23e 44fd 3f3e 23bc 0abf
000000d0: 0076 103b 3072 86be 8bb9 dcbe 1761 c3bd
000000e0: 7204 dfbd 4ec3 cbbc ca51 eb3e 6c07 cbbd
000000f0: 4f7e 913e 7838 613d da00 d03e faaa 11bf
00000100: 550a ad3d da47 d93d 7140 043f 74a6 c03e
00000110: d4f5 cbbd 4a1d 10bf ad70 16be 5fa8 37bd
00000120: 8421 533e d593 f3be 612b aabe b8c7 073f
00000130: 3518 adbe 11dd 05bf 0e72 3f3e 08ef 853e
00000140: 1681 67be 9bab 33bf 405a da3d 77f4 5abe
00000150: b6b4 fd3e 2403 c23e 1592 9fbd 88f7 4f3e
00000160: 2d25 e1bd d359 063f d626 873e dd3a 20bf
00000170: 90e0 9cbd 04ad 3a3e c685 2b3e 854f fcbe
